ml:
 <module 'mlatom' from '/mlatom/home/fatemealavi/mlatom_devBranch/mlatom/__init__.py'>
*************** Splitting data *********************
************************ ANI-1ccx_GELU_single precision **************************
model loaded from /mlatom/home/fatemealavi/anharmonic/ANI_1ccx_CH3CHO_new_model/CH3CHO_ANI_1ccx_TLOnMP2_SP_energyShifter_FixL1and7/CH3CHO_ANI_1ccx_TLonMP2_cv0/cv0.pt
Sequential(
  (0): AEVComputer()
  (1): ANIModel(
    (H): Sequential(
      (0): Linear(in_features=384, out_features=160, bias=True)
      (1): GELU(approximate='none')
      (2): Linear(in_features=160, out_features=128, bias=True)
      (3): GELU(approximate='none')
      (4): Linear(in_features=128, out_features=96, bias=True)
      (5): GELU(approximate='none')
      (6): Linear(in_features=96, out_features=1, bias=True)
    )
    (C): Sequential(
      (0): Linear(in_features=384, out_features=144, bias=True)
      (1): GELU(approximate='none')
      (2): Linear(in_features=144, out_features=112, bias=True)
      (3): GELU(approximate='none')
      (4): Linear(in_features=112, out_features=96, bias=True)
      (5): GELU(approximate='none')
      (6): Linear(in_features=96, out_features=1, bias=True)
    )
    (N): Sequential(
      (0): Linear(in_features=384, out_features=128, bias=True)
      (1): GELU(approximate='none')
      (2): Linear(in_features=128, out_features=112, bias=True)
      (3): GELU(approximate='none')
      (4): Linear(in_features=112, out_features=96, bias=True)
      (5): GELU(approximate='none')
      (6): Linear(in_features=96, out_features=1, bias=True)
    )
    (O): Sequential(
      (0): Linear(in_features=384, out_features=128, bias=True)
      (1): GELU(approximate='none')
      (2): Linear(in_features=128, out_features=112, bias=True)
      (3): GELU(approximate='none')
      (4): Linear(in_features=112, out_features=96, bias=True)
      (5): GELU(approximate='none')
      (6): Linear(in_features=96, out_features=1, bias=True)
    )
  )
)
training starting from epoch 1
validation MSE: 0.0009027657770917783 at epoch 1
learning_rate: 0.001
model saved in /mlatom/home/fatemealavi/anharmonic/ANI_1ccx_CH3CHO_new_model/CH3CHO_ANI_1ccx_TLOnMP2_SP_energyShifter_FixL1and7/CH3CHO_ANI_1ccx_TLonMP2_cv0/cv0.pt
validation MSE: 4.4395726167517773e-08 at epoch 2
learning_rate: 0.001
model saved in /mlatom/home/fatemealavi/anharmonic/ANI_1ccx_CH3CHO_new_model/CH3CHO_ANI_1ccx_TLOnMP2_SP_energyShifter_FixL1and7/CH3CHO_ANI_1ccx_TLonMP2_cv0/cv0.pt
…
